…
I0704 12:18:05.891700 17335 net.cpp:296] The NetState phase (0) differed from the phase (1) specified by a rule in layer data
I0704 12:18:05.891728 17335 net.cpp:296] The NetState phase (0) differed from the phase (1) specified by a rule in layer accuracy
I0704 12:18:05.891975 17335 net.cpp:53] Initializing net from parameters: 
name: "Pruebanet"
state {
  phase: TRAIN
  level: 0
  stage: ""
}
layer {
  name: "data"
  type: "Data"
  top: "data"
  top: "label"
  include {
    phase: TRAIN
  }
  transform_param {
    mirror: true
    crop_size: 227
    mean_file: "mean.binaryproto"
  }
  data_param {
    source: "train_lmdb"
    batch_size: 256
    backend: LMDB
  }
}
layer {
  name: "conv1"
  type: "Convolution"
  bottom: "data"
  top: "conv1"
  param {
    lr_mult: 1
    decay_mult: 1
  }
  param {
    lr_mult: 2
    decay_mult: 0
  }
  convolution_param {
    num_output: 96
    kernel_size: 11
    stride: 4
    weight_filler {
      type: "gaussian"
      std: 0.01
    }
    bias_filler {
      type: "constant"
      value: 0
    }
  }
}
layer {
  name: "relu1"
  type: "ReLU"
  bottom: "conv1"
  top: "conv1"
}
layer {
  name: "pool1"
  type: "Pooling"
  bottom: "conv1"
  top: "pool1"
  pooling_param {
    pool: MAX
    kernel_size: 3
    stride: 2
  }
}
layer {
  name: "norm1"
  type: "LRN"
  bottom: "pool1"
  top: "norm1"
  lrn_param {
    local_size: 5
    alpha: 0.0001
    beta: 0.75
  }
}
layer {
  name: "conv2"
  type: "Convolution"
  bottom: "norm1"
  top: "conv2"
  param {
    lr_mult: 1
    decay_mult: 1
  }
  param {
    lr_mult: 2
    decay_mult: 0
  }
  convolution_param {
    num_output: 256
    pad: 2
    kernel_size: 5
    group: 2
    weight_filler {
      type: "gaussian"
      std: 0.01
    }
    bias_filler {
      type: "constant"
      value: 1
    }
  }
}
layer {
  name: "relu2"
  type: "ReLU"
  bottom: "conv2"
  top: "conv2"
}
layer {
  name: "pool2"
  type: "Pooling"
  bottom: "conv2"
  top: "pool2"
  pooling_param {
    pool: MAX
    kernel_size: 3
    stride: 2
  }
}
layer {
  name: "norm2"
  type: "LRN"
  bottom: "pool2"
  top: "norm2"
  lrn_param {
    local_size: 5
    alpha: 0.0001
    beta: 0.75
  }
}
layer {
  name: "conv3"
  type: "Convolution"
  bottom: "norm2"
  top: "conv3"
  param {
    lr_mult: 1
    decay_mult: 1
  }
  param {
    lr_mult: 2
    decay_mult: 0
  }
  convolution_param {
    num_output: 384
    pad: 1
    kernel_size: 3
    weight_filler {
      type: "gaussian"
      std: 0.01
    }
    bias_filler {
      type: "constant"
      value: 0
    }
  }
}
layer {
  name: "relu3"
  type: "ReLU"
  bottom: "conv3"
  top: "conv3"
}
layer {
  name: "conv4"
  type: "Convolution"
  bottom: "conv3"
  top: "conv4"
  param {
    lr_mult: 1
    decay_mult: 1
  }
  param {
    lr_mult: 2
    decay_mult: 0
  }
  convolution_param {
    num_output: 384
    pad: 1
    kernel_size: 3
    group: 2
    weight_filler {
      type: "gaussian"
      std: 0.01
    }
    bias_filler {
      type: "constant"
      value: 1
    }
  }
}
layer {
  name: "relu4"
  type: "ReLU"
  bottom: "conv4"
  top: "conv4"
}
layer {
  name: "conv5"
  type: "Convolution"
  bottom: "conv4"
  top: "conv5"
  param {
    lr_mult: 1
    decay_mult: 1
  }
  param {
    lr_mult: 2
    decay_mult: 0
  }
  convolution_param {
    num_output: 256
    pad: 1
    kernel_size: 3
    group: 2
    weight_filler {
      type: "gaussian"
      std: 0.01
    }
    bias_filler {
      type: "constant"
      value: 1
    }
  }
}
layer {
  name: "relu5"
  type: "ReLU"
  bottom: "conv5"
  top: "conv5"
}
layer {
  name: "pool5"
  type: "Pooling"
  bottom: "conv5"
  top: "pool5"
  pooling_param {
    pool: MAX
    kernel_size: 3
    stride: 2
  }
}
layer {
  name: "fc6"
  type: "InnerProduct"
  bottom: "pool5"
  top: "fc6"
  param {
    lr_mult: 1
    decay_mult: 1
  }
  param {
    lr_mult: 2
    decay_mult: 0
  }
  inner_product_param {
    num_output: 4096
    weight_filler {
      type: "gaussian"
      std: 0.005
    }
    bias_filler {
      type: "constant"
      value: 1
    }
  }
}
layer {
  name: "relu6"
  type: "ReLU"
  bottom: "fc6"
  top: "fc6"
}
layer {
  name: "drop6"
  type: "Dropout"
  bottom: "fc6"
  top: "fc6"
  dropout_param {
    dropout_ratio: 0.5
  }
}
layer {
  name: "fc7"
  type: "InnerProduct"
  bottom: "fc6"
  top: "fc7"
  param {
    lr_mult: 1
    decay_mult: 1
  }
  param {
    lr_mult: 2
    decay_mult: 0
  }
  inner_product_param {
    num_output: 4096
    weight_filler {
      type: "gaussian"
      std: 0.005
    }
    bias_filler {
      type: "constant"
      value: 1
    }
  }
}
layer {
  name: "relu7"
  type: "ReLU"
  bottom: "fc7"
  top: "fc7"
}
layer {
  name: "drop7"
  type: "Dropout"
  bottom: "fc7"
  top: "fc7"
  dropout_param {
    dropout_ratio: 0.5
  }
}
layer {
  name: "fc8"
  type: "InnerProduct"
  bottom: "fc7"
  top: "fc8"
  param {
    lr_mult: 1
    decay_mult: 1
  }
  param {
    lr_mult: 2
    decay_mult: 0
  }
  inner_product_param {
    num_output: 2
    weight_filler {
      type: "gaussian"
      std: 0.01
    }
    bias_filler {
      type: "constant"
      value: 0
    }
  }
}
layer {
  name: "loss"
  type: "SoftmaxWithLoss"
  bottom: "fc8"
  bottom: "label"
  top: "loss"
}
I0704 12:18:05.892133 17335 layer_factory.hpp:77] Creating layer data
I0704 12:18:05.892292 17335 db_lmdb.cpp:35] Opened lmdb train_lmdb
I0704 12:18:05.892328 17335 net.cpp:86] Creating Layer data
I0704 12:18:05.892339 17335 net.cpp:382] data -> data
I0704 12:18:05.892367 17335 net.cpp:382] data -> label
I0704 12:18:05.892392 17335 data_transformer.cpp:25] Loading mean file from: mean.binaryproto
I0704 12:18:05.896652 17335 data_layer.cpp:45] output data size: 256,3,227,227
I0704 12:18:06.394979 17335 net.cpp:124] Setting up data
I0704 12:18:06.395020 17335 net.cpp:131] Top shape: 256 3 227 227 (39574272)
I0704 12:18:06.395026 17335 net.cpp:131] Top shape: 256 (256)
I0704 12:18:06.395031 17335 net.cpp:139] Memory required for data: 158298112
I0704 12:18:06.395045 17335 layer_factory.hpp:77] Creating layer conv1
I0704 12:18:06.395074 17335 net.cpp:86] Creating Layer conv1
I0704 12:18:06.395082 17335 net.cpp:408] conv1 <- data
I0704 12:18:06.395102 17335 net.cpp:382] conv1 -> conv1
I0704 12:18:06.714387 17335 net.cpp:124] Setting up conv1
I0704 12:18:06.714428 17335 net.cpp:131] Top shape: 256 96 55 55 (74342400)
I0704 12:18:06.714434 17335 net.cpp:139] Memory required for data: 455667712
I0704 12:18:06.714468 17335 layer_factory.hpp:77] Creating layer relu1
I0704 12:18:06.714485 17335 net.cpp:86] Creating Layer relu1
I0704 12:18:06.714491 17335 net.cpp:408] relu1 <- conv1
I0704 12:18:06.714500 17335 net.cpp:369] relu1 -> conv1 (in-place)
I0704 12:18:06.714952 17335 net.cpp:124] Setting up relu1
I0704 12:18:06.714967 17335 net.cpp:131] Top shape: 256 96 55 55 (74342400)
I0704 12:18:06.714972 17335 net.cpp:139] Memory required for data: 753037312
I0704 12:18:06.714977 17335 layer_factory.hpp:77] Creating layer pool1
I0704 12:18:06.714987 17335 net.cpp:86] Creating Layer pool1
I0704 12:18:06.714993 17335 net.cpp:408] pool1 <- conv1
I0704 12:18:06.715000 17335 net.cpp:382] pool1 -> pool1
I0704 12:18:06.715072 17335 net.cpp:124] Setting up pool1
I0704 12:18:06.715083 17335 net.cpp:131] Top shape: 256 96 27 27 (17915904)
I0704 12:18:06.715087 17335 net.cpp:139] Memory required for data: 824700928
I0704 12:18:06.715091 17335 layer_factory.hpp:77] Creating layer norm1
I0704 12:18:06.715106 17335 net.cpp:86] Creating Layer norm1
I0704 12:18:06.715113 17335 net.cpp:408] norm1 <- pool1
I0704 12:18:06.715121 17335 net.cpp:382] norm1 -> norm1
I0704 12:18:06.715406 17335 net.cpp:124] Setting up norm1
I0704 12:18:06.715440 17335 net.cpp:131] Top shape: 256 96 27 27 (17915904)
I0704 12:18:06.715446 17335 net.cpp:139] Memory required for data: 896364544
I0704 12:18:06.715451 17335 layer_factory.hpp:77] Creating layer conv2
I0704 12:18:06.715466 17335 net.cpp:86] Creating Layer conv2
I0704 12:18:06.715471 17335 net.cpp:408] conv2 <- norm1
I0704 12:18:06.715481 17335 net.cpp:382] conv2 -> conv2
I0704 12:18:06.724597 17335 net.cpp:124] Setting up conv2
I0704 12:18:06.724629 17335 net.cpp:131] Top shape: 256 256 27 27 (47775744)
I0704 12:18:06.724634 17335 net.cpp:139] Memory required for data: 1087467520
I0704 12:18:06.724653 17335 layer_factory.hpp:77] Creating layer relu2
I0704 12:18:06.724664 17335 net.cpp:86] Creating Layer relu2
I0704 12:18:06.724669 17335 net.cpp:408] relu2 <- conv2
I0704 12:18:06.724680 17335 net.cpp:369] relu2 -> conv2 (in-place)
I0704 12:18:06.724958 17335 net.cpp:124] Setting up relu2
I0704 12:18:06.724974 17335 net.cpp:131] Top shape: 256 256 27 27 (47775744)
I0704 12:18:06.724978 17335 net.cpp:139] Memory required for data: 1278570496
I0704 12:18:06.724982 17335 layer_factory.hpp:77] Creating layer pool2
I0704 12:18:06.724992 17335 net.cpp:86] Creating Layer pool2
I0704 12:18:06.724997 17335 net.cpp:408] pool2 <- conv2
I0704 12:18:06.725003 17335 net.cpp:382] pool2 -> pool2
I0704 12:18:06.725070 17335 net.cpp:124] Setting up pool2
I0704 12:18:06.725080 17335 net.cpp:131] Top shape: 256 256 13 13 (11075584)
I0704 12:18:06.725085 17335 net.cpp:139] Memory required for data: 1322872832
I0704 12:18:06.725088 17335 layer_factory.hpp:77] Creating layer norm2
I0704 12:18:06.725101 17335 net.cpp:86] Creating Layer norm2
I0704 12:18:06.725108 17335 net.cpp:408] norm2 <- pool2
I0704 12:18:06.725117 17335 net.cpp:382] norm2 -> norm2
I0704 12:18:06.725613 17335 net.cpp:124] Setting up norm2
I0704 12:18:06.725631 17335 net.cpp:131] Top shape: 256 256 13 13 (11075584)
I0704 12:18:06.725636 17335 net.cpp:139] Memory required for data: 1367175168
I0704 12:18:06.725641 17335 layer_factory.hpp:77] Creating layer conv3
I0704 12:18:06.725658 17335 net.cpp:86] Creating Layer conv3
I0704 12:18:06.725663 17335 net.cpp:408] conv3 <- norm2
I0704 12:18:06.725682 17335 net.cpp:382] conv3 -> conv3
I0704 12:18:06.772810 17335 net.cpp:124] Setting up conv3
I0704 12:18:06.772850 17335 net.cpp:131] Top shape: 256 384 13 13 (16613376)
I0704 12:18:06.772855 17335 net.cpp:139] Memory required for data: 1433628672
I0704 12:18:06.772874 17335 layer_factory.hpp:77] Creating layer relu3
I0704 12:18:06.772887 17335 net.cpp:86] Creating Layer relu3
I0704 12:18:06.772893 17335 net.cpp:408] relu3 <- conv3
I0704 12:18:06.772905 17335 net.cpp:369] relu3 -> conv3 (in-place)
I0704 12:18:06.773190 17335 net.cpp:124] Setting up relu3
I0704 12:18:06.773205 17335 net.cpp:131] Top shape: 256 384 13 13 (16613376)
I0704 12:18:06.773210 17335 net.cpp:139] Memory required for data: 1500082176
I0704 12:18:06.773213 17335 layer_factory.hpp:77] Creating layer conv4
I0704 12:18:06.773229 17335 net.cpp:86] Creating Layer conv4
I0704 12:18:06.773233 17335 net.cpp:408] conv4 <- conv3
I0704 12:18:06.773247 17335 net.cpp:382] conv4 -> conv4
I0704 12:18:06.788166 17335 net.cpp:124] Setting up conv4
I0704 12:18:06.788205 17335 net.cpp:131] Top shape: 256 384 13 13 (16613376)
I0704 12:18:06.788210 17335 net.cpp:139] Memory required for data: 1566535680
I0704 12:18:06.788224 17335 layer_factory.hpp:77] Creating layer relu4
I0704 12:18:06.788238 17335 net.cpp:86] Creating Layer relu4
I0704 12:18:06.788244 17335 net.cpp:408] relu4 <- conv4
I0704 12:18:06.788256 17335 net.cpp:369] relu4 -> conv4 (in-place)
I0704 12:18:06.788522 17335 net.cpp:124] Setting up relu4
I0704 12:18:06.788534 17335 net.cpp:131] Top shape: 256 384 13 13 (16613376)
I0704 12:18:06.788539 17335 net.cpp:139] Memory required for data: 1632989184
I0704 12:18:06.788543 17335 layer_factory.hpp:77] Creating layer conv5
I0704 12:18:06.788560 17335 net.cpp:86] Creating Layer conv5
I0704 12:18:06.788568 17335 net.cpp:408] conv5 <- conv4
I0704 12:18:06.788579 17335 net.cpp:382] conv5 -> conv5
I0704 12:18:06.799779 17335 net.cpp:124] Setting up conv5
I0704 12:18:06.799814 17335 net.cpp:131] Top shape: 256 256 13 13 (11075584)
I0704 12:18:06.799819 17335 net.cpp:139] Memory required for data: 1677291520
I0704 12:18:06.799842 17335 layer_factory.hpp:77] Creating layer relu5
I0704 12:18:06.799854 17335 net.cpp:86] Creating Layer relu5
I0704 12:18:06.799860 17335 net.cpp:408] relu5 <- conv5
I0704 12:18:06.799870 17335 net.cpp:369] relu5 -> conv5 (in-place)
I0704 12:18:06.800346 17335 net.cpp:124] Setting up relu5
I0704 12:18:06.800364 17335 net.cpp:131] Top shape: 256 256 13 13 (11075584)
I0704 12:18:06.800367 17335 net.cpp:139] Memory required for data: 1721593856
I0704 12:18:06.800371 17335 layer_factory.hpp:77] Creating layer pool5
I0704 12:18:06.800381 17335 net.cpp:86] Creating Layer pool5
I0704 12:18:06.800386 17335 net.cpp:408] pool5 <- conv5
I0704 12:18:06.800393 17335 net.cpp:382] pool5 -> pool5
I0704 12:18:06.800462 17335 net.cpp:124] Setting up pool5
I0704 12:18:06.800473 17335 net.cpp:131] Top shape: 256 256 6 6 (2359296)
I0704 12:18:06.800477 17335 net.cpp:139] Memory required for data: 1731031040
I0704 12:18:06.800480 17335 layer_factory.hpp:77] Creating layer fc6
I0704 12:18:06.800500 17335 net.cpp:86] Creating Layer fc6
I0704 12:18:06.800508 17335 net.cpp:408] fc6 <- pool5
I0704 12:18:06.800516 17335 net.cpp:382] fc6 -> fc6
I0704 12:18:07.494134 17335 net.cpp:124] Setting up fc6
I0704 12:18:07.494171 17335 net.cpp:131] Top shape: 256 4096 (1048576)
I0704 12:18:07.494176 17335 net.cpp:139] Memory required for data: 1735225344
I0704 12:18:07.494190 17335 layer_factory.hpp:77] Creating layer relu6
I0704 12:18:07.494205 17335 net.cpp:86] Creating Layer relu6
I0704 12:18:07.494211 17335 net.cpp:408] relu6 <- fc6
I0704 12:18:07.494222 17335 net.cpp:369] relu6 -> fc6 (in-place)
I0704 12:18:07.494590 17335 net.cpp:124] Setting up relu6
I0704 12:18:07.494601 17335 net.cpp:131] Top shape: 256 4096 (1048576)
I0704 12:18:07.494606 17335 net.cpp:139] Memory required for data: 1739419648
I0704 12:18:07.494611 17335 layer_factory.hpp:77] Creating layer drop6
I0704 12:18:07.494619 17335 net.cpp:86] Creating Layer drop6
I0704 12:18:07.494623 17335 net.cpp:408] drop6 <- fc6
I0704 12:18:07.494632 17335 net.cpp:369] drop6 -> fc6 (in-place)
I0704 12:18:07.494670 17335 net.cpp:124] Setting up drop6
I0704 12:18:07.494678 17335 net.cpp:131] Top shape: 256 4096 (1048576)
I0704 12:18:07.494681 17335 net.cpp:139] Memory required for data: 1743613952
I0704 12:18:07.494684 17335 layer_factory.hpp:77] Creating layer fc7
I0704 12:18:07.494704 17335 net.cpp:86] Creating Layer fc7
I0704 12:18:07.494707 17335 net.cpp:408] fc7 <- fc6
I0704 12:18:07.494714 17335 net.cpp:382] fc7 -> fc7
I0704 12:18:07.796211 17335 net.cpp:124] Setting up fc7
I0704 12:18:07.796247 17335 net.cpp:131] Top shape: 256 4096 (1048576)
I0704 12:18:07.796252 17335 net.cpp:139] Memory required for data: 1747808256
I0704 12:18:07.796265 17335 layer_factory.hpp:77] Creating layer relu7
I0704 12:18:07.796278 17335 net.cpp:86] Creating Layer relu7
I0704 12:18:07.796284 17335 net.cpp:408] relu7 <- fc7
I0704 12:18:07.796303 17335 net.cpp:369] relu7 -> fc7 (in-place)
I0704 12:18:07.796988 17335 net.cpp:124] Setting up relu7
I0704 12:18:07.797003 17335 net.cpp:131] Top shape: 256 4096 (1048576)
I0704 12:18:07.797008 17335 net.cpp:139] Memory required for data: 1752002560
I0704 12:18:07.797013 17335 layer_factory.hpp:77] Creating layer drop7
I0704 12:18:07.797024 17335 net.cpp:86] Creating Layer drop7
I0704 12:18:07.797029 17335 net.cpp:408] drop7 <- fc7
I0704 12:18:07.797036 17335 net.cpp:369] drop7 -> fc7 (in-place)
I0704 12:18:07.797068 17335 net.cpp:124] Setting up drop7
I0704 12:18:07.797080 17335 net.cpp:131] Top shape: 256 4096 (1048576)
I0704 12:18:07.797083 17335 net.cpp:139] Memory required for data: 1756196864
I0704 12:18:07.797089 17335 layer_factory.hpp:77] Creating layer fc8
I0704 12:18:07.797101 17335 net.cpp:86] Creating Layer fc8
I0704 12:18:07.797106 17335 net.cpp:408] fc8 <- fc7
I0704 12:18:07.797117 17335 net.cpp:382] fc8 -> fc8
I0704 12:18:07.798197 17335 net.cpp:124] Setting up fc8
I0704 12:18:07.798234 17335 net.cpp:131] Top shape: 256 2 (512)
I0704 12:18:07.798238 17335 net.cpp:139] Memory required for data: 1756198912
I0704 12:18:07.798249 17335 layer_factory.hpp:77] Creating layer loss
I0704 12:18:07.798260 17335 net.cpp:86] Creating Layer loss
I0704 12:18:07.798265 17335 net.cpp:408] loss <- fc8
I0704 12:18:07.798271 17335 net.cpp:408] loss <- label
I0704 12:18:07.798282 17335 net.cpp:382] loss -> loss
I0704 12:18:07.798300 17335 layer_factory.hpp:77] Creating layer loss
…
I0704 12:18:07.799316 17335 solver.cpp:173] Creating test net (#0) specified by net file: pruebanet_train_val_1.prototxt
I0704 12:18:07.799366 17335 net.cpp:296] The NetState phase (1) differed from the phase (0) specified by a rule in layer data
I0704 12:18:07.799614 17335 net.cpp:53] Initializing net from parameters: 
name: "Pruebanet"
state {
  phase: TEST
}
layer {
  name: "data"
  type: "Data"
  top: "data"
  top: "label"
  include {
    phase: TEST
  }
  transform_param {
    mirror: false
    crop_size: 227
    mean_file: "mean.binaryproto"
  }
  data_param {
    source: "validation_lmdb"
    batch_size: 50
    backend: LMDB
  }
}
layer {
  name: "conv1"
  type: "Convolution"
  bottom: "data"
  top: "conv1"
  param {
    lr_mult: 1
    decay_mult: 1
  }
  param {
    lr_mult: 2
    decay_mult: 0
  }
  convolution_param {
    num_output: 96
    kernel_size: 11
    stride: 4
    weight_filler {
      type: "gaussian"
      std: 0.01
    }
    bias_filler {
      type: "constant"
      value: 0
    }
  }
}
layer {
  name: "relu1"
  type: "ReLU"
  bottom: "conv1"
  top: "conv1"
}
layer {
  name: "pool1"
  type: "Pooling"
  bottom: "conv1"
  top: "pool1"
  pooling_param {
    pool: MAX
    kernel_size: 3
    stride: 2
  }
}
layer {
  name: "norm1"
  type: "LRN"
  bottom: "pool1"
  top: "norm1"
  lrn_param {
    local_size: 5
    alpha: 0.0001
    beta: 0.75
  }
}
layer {
  name: "conv2"
  type: "Convolution"
  bottom: "norm1"
  top: "conv2"
  param {
    lr_mult: 1
    decay_mult: 1
  }
  param {
    lr_mult: 2
    decay_mult: 0
  }
  convolution_param {
    num_output: 256
    pad: 2
    kernel_size: 5
    group: 2
    weight_filler {
      type: "gaussian"
      std: 0.01
    }
    bias_filler {
      type: "constant"
      value: 1
    }
  }
}
layer {
  name: "relu2"
  type: "ReLU"
  bottom: "conv2"
  top: "conv2"
}
layer {
  name: "pool2"
  type: "Pooling"
  bottom: "conv2"
  top: "pool2"
  pooling_param {
    pool: MAX
    kernel_size: 3
    stride: 2
  }
}
layer {
  name: "norm2"
  type: "LRN"
  bottom: "pool2"
  top: "norm2"
  lrn_param {
    local_size: 5
    alpha: 0.0001
    beta: 0.75
  }
}
layer {
  name: "conv3"
  type: "Convolution"
  bottom: "norm2"
  top: "conv3"
  param {
    lr_mult: 1
    decay_mult: 1
  }
  param {
    lr_mult: 2
    decay_mult: 0
  }
  convolution_param {
    num_output: 384
    pad: 1
    kernel_size: 3
    weight_filler {
      type: "gaussian"
      std: 0.01
    }
    bias_filler {
      type: "constant"
      value: 0
    }
  }
}
layer {
  name: "relu3"
  type: "ReLU"
  bottom: "conv3"
  top: "conv3"
}
layer {
  name: "conv4"
  type: "Convolution"
  bottom: "conv3"
  top: "conv4"
  param {
    lr_mult: 1
    decay_mult: 1
  }
  param {
    lr_mult: 2
    decay_mult: 0
  }
  convolution_param {
    num_output: 384
    pad: 1
    kernel_size: 3
    group: 2
    weight_filler {
      type: "gaussian"
      std: 0.01
    }
    bias_filler {
      type: "constant"
      value: 1
    }
  }
}
layer {
  name: "relu4"
  type: "ReLU"
  bottom: "conv4"
  top: "conv4"
}
layer {
  name: "conv5"
  type: "Convolution"
  bottom: "conv4"
  top: "conv5"
  param {
    lr_mult: 1
    decay_mult: 1
  }
  param {
    lr_mult: 2
    decay_mult: 0
  }
  convolution_param {
    num_output: 256
    pad: 1
    kernel_size: 3
    group: 2
    weight_filler {
      type: "gaussian"
      std: 0.01
    }
    bias_filler {
      type: "constant"
      value: 1
    }
  }
}
layer {
  name: "relu5"
  type: "ReLU"
  bottom: "conv5"
  top: "conv5"
}
layer {
  name: "pool5"
  type: "Pooling"
  bottom: "conv5"
  top: "pool5"
  pooling_param {
    pool: MAX
    kernel_size: 3
    stride: 2
  }
}
layer {
  name: "fc6"
  type: "InnerProduct"
  bottom: "pool5"
  top: "fc6"
  param {
    lr_mult: 1
    decay_mult: 1
  }
  param {
    lr_mult: 2
    decay_mult: 0
  }
  inner_product_param {
    num_output: 4096
    weight_filler {
      type: "gaussian"
      std: 0.005
    }
    bias_filler {
      type: "constant"
      value: 1
    }
  }
}
layer {
  name: "relu6"
  type: "ReLU"
  bottom: "fc6"
  top: "fc6"
}
layer {
  name: "drop6"
  type: "Dropout"
  bottom: "fc6"
  top: "fc6"
  dropout_param {
    dropout_ratio: 0.5
  }
}
layer {
  name: "fc7"
  type: "InnerProduct"
  bottom: "fc6"
  top: "fc7"
  param {
    lr_mult: 1
    decay_mult: 1
  }
  param {
    lr_mult: 2
    decay_mult: 0
  }
  inner_product_param {
    num_output: 4096
    weight_filler {
      type: "gaussian"
      std: 0.005
    }
    bias_filler {
      type: "constant"
      value: 1
    }
  }
}
layer {
  name: "relu7"
  type: "ReLU"
  bottom: "fc7"
  top: "fc7"
}
layer {
  name: "drop7"
  type: "Dropout"
  bottom: "fc7"
  top: "fc7"
  dropout_param {
    dropout_ratio: 0.5
  }
}
layer {
  name: "fc8"
  type: "InnerProduct"
  bottom: "fc7"
  top: "fc8"
  param {
    lr_mult: 1
    decay_mult: 1
  }
  param {
    lr_mult: 2
    decay_mult: 0
  }
  inner_product_param {
    num_output: 2
    weight_filler {
      type: "gaussian"
      std: 0.01
    }
    bias_filler {
      type: "constant"
      value: 0
    }
  }
}
layer {
  name: "accuracy"
  type: "Accuracy"
  bottom: "fc8"
  bottom: "label"
  top: "accuracy"
  include {
    phase: TEST
  }
}
layer {
  name: "loss"
  type: "SoftmaxWithLoss"
  bottom: "fc8"
  bottom: "label"
  top: "loss"
}
I0704 12:18:07.799777 17335 layer_factory.hpp:77] Creating layer data
I0704 12:18:07.799866 17335 db_lmdb.cpp:35] Opened lmdb validation_lmdb
I0704 12:18:07.799899 17335 net.cpp:86] Creating Layer data
I0704 12:18:07.799911 17335 net.cpp:382] data -> data
I0704 12:18:07.799923 17335 net.cpp:382] data -> label
I0704 12:18:07.799933 17335 data_transformer.cpp:25] Loading mean file from: mean.binaryproto
I0704 12:18:07.803099 17335 data_layer.cpp:45] output data size: 50,3,227,227
I0704 12:18:07.913161 17335 net.cpp:124] Setting up data
I0704 12:18:07.913204 17335 net.cpp:131] Top shape: 50 3 227 227 (7729350)
I0704 12:18:07.913211 17335 net.cpp:131] Top shape: 50 (50)
I0704 12:18:07.913216 17335 net.cpp:139] Memory required for data: 30917600
I0704 12:18:07.913224 17335 layer_factory.hpp:77] Creating layer label_data_1_split
I0704 12:18:07.913242 17335 net.cpp:86] Creating Layer label_data_1_split
I0704 12:18:07.913249 17335 net.cpp:408] label_data_1_split <- label
I0704 12:18:07.913261 17335 net.cpp:382] label_data_1_split -> label_data_1_split_0
I0704 12:18:07.913276 17335 net.cpp:382] label_data_1_split -> label_data_1_split_1
I0704 12:18:07.913648 17335 net.cpp:124] Setting up label_data_1_split
I0704 12:18:07.913709 17335 net.cpp:131] Top shape: 50 (50)
I0704 12:18:07.913719 17335 net.cpp:131] Top shape: 50 (50)
I0704 12:18:07.913724 17335 net.cpp:139] Memory required for data: 30918000
I0704 12:18:07.913734 17335 layer_factory.hpp:77] Creating layer conv1
I0704 12:18:07.913767 17335 net.cpp:86] Creating Layer conv1
I0704 12:18:07.913779 17335 net.cpp:408] conv1 <- data
I0704 12:18:07.913795 17335 net.cpp:382] conv1 -> conv1
I0704 12:18:07.919927 17335 net.cpp:124] Setting up conv1
I0704 12:18:07.919956 17335 net.cpp:131] Top shape: 50 96 55 55 (14520000)
I0704 12:18:07.919965 17335 net.cpp:139] Memory required for data: 88998000
I0704 12:18:07.919986 17335 layer_factory.hpp:77] Creating layer relu1
I0704 12:18:07.919999 17335 net.cpp:86] Creating Layer relu1
I0704 12:18:07.920004 17335 net.cpp:408] relu1 <- conv1
I0704 12:18:07.920016 17335 net.cpp:369] relu1 -> conv1 (in-place)
I0704 12:18:07.920584 17335 net.cpp:124] Setting up relu1
I0704 12:18:07.920603 17335 net.cpp:131] Top shape: 50 96 55 55 (14520000)
I0704 12:18:07.920608 17335 net.cpp:139] Memory required for data: 147078000
I0704 12:18:07.920614 17335 layer_factory.hpp:77] Creating layer pool1
I0704 12:18:07.920630 17335 net.cpp:86] Creating Layer pool1
I0704 12:18:07.920636 17335 net.cpp:408] pool1 <- conv1
I0704 12:18:07.920646 17335 net.cpp:382] pool1 -> pool1
I0704 12:18:07.920732 17335 net.cpp:124] Setting up pool1
I0704 12:18:07.920744 17335 net.cpp:131] Top shape: 50 96 27 27 (3499200)
I0704 12:18:07.920748 17335 net.cpp:139] Memory required for data: 161074800
I0704 12:18:07.920753 17335 layer_factory.hpp:77] Creating layer norm1
I0704 12:18:07.920768 17335 net.cpp:86] Creating Layer norm1
I0704 12:18:07.920773 17335 net.cpp:408] norm1 <- pool1
I0704 12:18:07.920783 17335 net.cpp:382] norm1 -> norm1
I0704 12:18:07.921154 17335 net.cpp:124] Setting up norm1
I0704 12:18:07.921169 17335 net.cpp:131] Top shape: 50 96 27 27 (3499200)
I0704 12:18:07.921174 17335 net.cpp:139] Memory required for data: 175071600
I0704 12:18:07.921178 17335 layer_factory.hpp:77] Creating layer conv2
I0704 12:18:07.921195 17335 net.cpp:86] Creating Layer conv2
I0704 12:18:07.921202 17335 net.cpp:408] conv2 <- norm1
I0704 12:18:07.921214 17335 net.cpp:382] conv2 -> conv2
I0704 12:18:07.931794 17335 net.cpp:124] Setting up conv2
I0704 12:18:07.931834 17335 net.cpp:131] Top shape: 50 256 27 27 (9331200)
I0704 12:18:07.931843 17335 net.cpp:139] Memory required for data: 212396400
I0704 12:18:07.931864 17335 layer_factory.hpp:77] Creating layer relu2
I0704 12:18:07.931880 17335 net.cpp:86] Creating Layer relu2
I0704 12:18:07.931888 17335 net.cpp:408] relu2 <- conv2
I0704 12:18:07.931901 17335 net.cpp:369] relu2 -> conv2 (in-place)
I0704 12:18:07.932232 17335 net.cpp:124] Setting up relu2
I0704 12:18:07.932245 17335 net.cpp:131] Top shape: 50 256 27 27 (9331200)
I0704 12:18:07.932250 17335 net.cpp:139] Memory required for data: 249721200
I0704 12:18:07.932256 17335 layer_factory.hpp:77] Creating layer pool2
I0704 12:18:07.932271 17335 net.cpp:86] Creating Layer pool2
I0704 12:18:07.932319 17335 net.cpp:408] pool2 <- conv2
I0704 12:18:07.932332 17335 net.cpp:382] pool2 -> pool2
I0704 12:18:07.932421 17335 net.cpp:124] Setting up pool2
I0704 12:18:07.932433 17335 net.cpp:131] Top shape: 50 256 13 13 (2163200)
I0704 12:18:07.932437 17335 net.cpp:139] Memory required for data: 258374000
I0704 12:18:07.932442 17335 layer_factory.hpp:77] Creating layer norm2
I0704 12:18:07.932456 17335 net.cpp:86] Creating Layer norm2
I0704 12:18:07.932463 17335 net.cpp:408] norm2 <- pool2
I0704 12:18:07.932472 17335 net.cpp:382] norm2 -> norm2
I0704 12:18:07.933082 17335 net.cpp:124] Setting up norm2
I0704 12:18:07.933101 17335 net.cpp:131] Top shape: 50 256 13 13 (2163200)
I0704 12:18:07.933106 17335 net.cpp:139] Memory required for data: 267026800
I0704 12:18:07.933111 17335 layer_factory.hpp:77] Creating layer conv3
I0704 12:18:07.933130 17335 net.cpp:86] Creating Layer conv3
I0704 12:18:07.933137 17335 net.cpp:408] conv3 <- norm2
I0704 12:18:07.933149 17335 net.cpp:382] conv3 -> conv3
I0704 12:18:07.954186 17335 net.cpp:124] Setting up conv3
I0704 12:18:07.954228 17335 net.cpp:131] Top shape: 50 384 13 13 (3244800)
I0704 12:18:07.954236 17335 net.cpp:139] Memory required for data: 280006000
I0704 12:18:07.954257 17335 layer_factory.hpp:77] Creating layer relu3
I0704 12:18:07.954273 17335 net.cpp:86] Creating Layer relu3
I0704 12:18:07.954280 17335 net.cpp:408] relu3 <- conv3
I0704 12:18:07.954293 17335 net.cpp:369] relu3 -> conv3 (in-place)
I0704 12:18:07.954588 17335 net.cpp:124] Setting up relu3
I0704 12:18:07.954601 17335 net.cpp:131] Top shape: 50 384 13 13 (3244800)
I0704 12:18:07.954604 17335 net.cpp:139] Memory required for data: 292985200
I0704 12:18:07.954610 17335 layer_factory.hpp:77] Creating layer conv4
I0704 12:18:07.954628 17335 net.cpp:86] Creating Layer conv4
I0704 12:18:07.954633 17335 net.cpp:408] conv4 <- conv3
I0704 12:18:07.954643 17335 net.cpp:382] conv4 -> conv4
I0704 12:18:07.971740 17335 net.cpp:124] Setting up conv4
I0704 12:18:07.971766 17335 net.cpp:131] Top shape: 50 384 13 13 (3244800)
I0704 12:18:07.971772 17335 net.cpp:139] Memory required for data: 305964400
I0704 12:18:07.971788 17335 layer_factory.hpp:77] Creating layer relu4
I0704 12:18:07.971806 17335 net.cpp:86] Creating Layer relu4
I0704 12:18:07.971812 17335 net.cpp:408] relu4 <- conv4
I0704 12:18:07.971822 17335 net.cpp:369] relu4 -> conv4 (in-place)
I0704 12:18:07.972193 17335 net.cpp:124] Setting up relu4
I0704 12:18:07.972210 17335 net.cpp:131] Top shape: 50 384 13 13 (3244800)
I0704 12:18:07.972218 17335 net.cpp:139] Memory required for data: 318943600
I0704 12:18:07.972223 17335 layer_factory.hpp:77] Creating layer conv5
I0704 12:18:07.972242 17335 net.cpp:86] Creating Layer conv5
I0704 12:18:07.972249 17335 net.cpp:408] conv5 <- conv4
I0704 12:18:07.972263 17335 net.cpp:382] conv5 -> conv5
I0704 12:18:07.986539 17335 net.cpp:124] Setting up conv5
I0704 12:18:07.986563 17335 net.cpp:131] Top shape: 50 256 13 13 (2163200)
I0704 12:18:07.986568 17335 net.cpp:139] Memory required for data: 327596400
I0704 12:18:07.986589 17335 layer_factory.hpp:77] Creating layer relu5
I0704 12:18:07.986601 17335 net.cpp:86] Creating Layer relu5
I0704 12:18:07.986608 17335 net.cpp:408] relu5 <- conv5
I0704 12:18:07.986618 17335 net.cpp:369] relu5 -> conv5 (in-place)
I0704 12:18:07.986951 17335 net.cpp:124] Setting up relu5
I0704 12:18:07.986965 17335 net.cpp:131] Top shape: 50 256 13 13 (2163200)
I0704 12:18:07.986970 17335 net.cpp:139] Memory required for data: 336249200
I0704 12:18:07.986975 17335 layer_factory.hpp:77] Creating layer pool5
I0704 12:18:07.986992 17335 net.cpp:86] Creating Layer pool5
I0704 12:18:07.986997 17335 net.cpp:408] pool5 <- conv5
I0704 12:18:07.987007 17335 net.cpp:382] pool5 -> pool5
I0704 12:18:07.987089 17335 net.cpp:124] Setting up pool5
I0704 12:18:07.987102 17335 net.cpp:131] Top shape: 50 256 6 6 (460800)
I0704 12:18:07.987105 17335 net.cpp:139] Memory required for data: 338092400
I0704 12:18:07.987110 17335 layer_factory.hpp:77] Creating layer fc6
I0704 12:18:07.987155 17335 net.cpp:86] Creating Layer fc6
I0704 12:18:07.987162 17335 net.cpp:408] fc6 <- pool5
I0704 12:18:07.987174 17335 net.cpp:382] fc6 -> fc6
I0704 12:18:08.666429 17335 net.cpp:124] Setting up fc6
I0704 12:18:08.666473 17335 net.cpp:131] Top shape: 50 4096 (204800)
I0704 12:18:08.666478 17335 net.cpp:139] Memory required for data: 338911600
I0704 12:18:08.666492 17335 layer_factory.hpp:77] Creating layer relu6
I0704 12:18:08.666507 17335 net.cpp:86] Creating Layer relu6
I0704 12:18:08.666513 17335 net.cpp:408] relu6 <- fc6
I0704 12:18:08.666524 17335 net.cpp:369] relu6 -> fc6 (in-place)
I0704 12:18:08.667192 17335 net.cpp:124] Setting up relu6
I0704 12:18:08.667207 17335 net.cpp:131] Top shape: 50 4096 (204800)
I0704 12:18:08.667210 17335 net.cpp:139] Memory required for data: 339730800
I0704 12:18:08.667217 17335 layer_factory.hpp:77] Creating layer drop6
I0704 12:18:08.667227 17335 net.cpp:86] Creating Layer drop6
I0704 12:18:08.667232 17335 net.cpp:408] drop6 <- fc6
I0704 12:18:08.667239 17335 net.cpp:369] drop6 -> fc6 (in-place)
I0704 12:18:08.667285 17335 net.cpp:124] Setting up drop6
I0704 12:18:08.667294 17335 net.cpp:131] Top shape: 50 4096 (204800)
I0704 12:18:08.667299 17335 net.cpp:139] Memory required for data: 340550000
I0704 12:18:08.667302 17335 layer_factory.hpp:77] Creating layer fc7
I0704 12:18:08.667315 17335 net.cpp:86] Creating Layer fc7
I0704 12:18:08.667321 17335 net.cpp:408] fc7 <- fc6
I0704 12:18:08.667330 17335 net.cpp:382] fc7 -> fc7
I0704 12:18:08.971721 17335 net.cpp:124] Setting up fc7
I0704 12:18:08.971767 17335 net.cpp:131] Top shape: 50 4096 (204800)
I0704 12:18:08.971771 17335 net.cpp:139] Memory required for data: 341369200
I0704 12:18:08.971788 17335 layer_factory.hpp:77] Creating layer relu7
I0704 12:18:08.971807 17335 net.cpp:86] Creating Layer relu7
I0704 12:18:08.971815 17335 net.cpp:408] relu7 <- fc7
I0704 12:18:08.971825 17335 net.cpp:369] relu7 -> fc7 (in-place)
I0704 12:18:08.972183 17335 net.cpp:124] Setting up relu7
I0704 12:18:08.972195 17335 net.cpp:131] Top shape: 50 4096 (204800)
I0704 12:18:08.972199 17335 net.cpp:139] Memory required for data: 342188400
I0704 12:18:08.972204 17335 layer_factory.hpp:77] Creating layer drop7
I0704 12:18:08.972215 17335 net.cpp:86] Creating Layer drop7
I0704 12:18:08.972220 17335 net.cpp:408] drop7 <- fc7
I0704 12:18:08.972229 17335 net.cpp:369] drop7 -> fc7 (in-place)
I0704 12:18:08.972275 17335 net.cpp:124] Setting up drop7
I0704 12:18:08.972285 17335 net.cpp:131] Top shape: 50 4096 (204800)
I0704 12:18:08.972288 17335 net.cpp:139] Memory required for data: 343007600
I0704 12:18:08.972293 17335 layer_factory.hpp:77] Creating layer fc8
I0704 12:18:08.972306 17335 net.cpp:86] Creating Layer fc8
I0704 12:18:08.972311 17335 net.cpp:408] fc8 <- fc7
I0704 12:18:08.972321 17335 net.cpp:382] fc8 -> fc8
I0704 12:18:08.972625 17335 net.cpp:124] Setting up fc8
I0704 12:18:08.972636 17335 net.cpp:131] Top shape: 50 2 (100)
I0704 12:18:08.972640 17335 net.cpp:139] Memory required for data: 343008000
I0704 12:18:08.972647 17335 layer_factory.hpp:77] Creating layer fc8_fc8_0_split
I0704 12:18:08.972657 17335 net.cpp:86] Creating Layer fc8_fc8_0_split
I0704 12:18:08.972661 17335 net.cpp:408] fc8_fc8_0_split <- fc8
I0704 12:18:08.972669 17335 net.cpp:382] fc8_fc8_0_split -> fc8_fc8_0_split_0
I0704 12:18:08.972679 17335 net.cpp:382] fc8_fc8_0_split -> fc8_fc8_0_split_1
I0704 12:18:08.972736 17335 net.cpp:124] Setting up fc8_fc8_0_split
I0704 12:18:08.972745 17335 net.cpp:131] Top shape: 50 2 (100)
I0704 12:18:08.972750 17335 net.cpp:131] Top shape: 50 2 (100)
I0704 12:18:08.972754 17335 net.cpp:139] Memory required for data: 343008800
I0704 12:18:08.972759 17335 layer_factory.hpp:77] Creating layer accuracy
I0704 12:18:08.972769 17335 net.cpp:86] Creating Layer accuracy
I0704 12:18:08.972775 17335 net.cpp:408] accuracy <- fc8_fc8_0_split_0
I0704 12:18:08.972781 17335 net.cpp:408] accuracy <- label_data_1_split_0
I0704 12:18:08.972790 17335 net.cpp:382] accuracy -> accuracy
…
