…
I0704 09:57:59.160236 26954 net.cpp:296] The NetState phase (0) differed from the phase (1) specified by a rule in layer data
I0704 09:57:59.160267 26954 net.cpp:296] The NetState phase (0) differed from the phase (1) specified by a rule in layer accuracy
I0704 09:57:59.160506 26954 net.cpp:53] Initializing net from parameters: 
name: "Pruebanet"
state {
  phase: TRAIN
  level: 0
  stage: ""
}
layer {
  name: "data"
  type: "Data"
  top: "data"
  top: "label"
  include {
    phase: TRAIN
  }
  transform_param {
    mirror: true
    crop_size: 227
    mean_file: "mean.binaryproto"
  }
  data_param {
    source: "train_lmdb"
    batch_size: 256
    backend: LMDB
  }
}
layer {
  name: "conv1"
  type: "Convolution"
  bottom: "data"
  top: "conv1"
  param {
    lr_mult: 1
    decay_mult: 1
  }
  param {
    lr_mult: 2
    decay_mult: 0
  }
  convolution_param {
    num_output: 96
    kernel_size: 11
    stride: 4
    weight_filler {
      type: "gaussian"
      std: 0.01
    }
    bias_filler {
      type: "constant"
      value: 0
    }
  }
}
layer {
  name: "relu1"
  type: "ReLU"
  bottom: "conv1"
  top: "conv1"
}
layer {
  name: "pool1"
  type: "Pooling"
  bottom: "conv1"
  top: "pool1"
  pooling_param {
    pool: MAX
    kernel_size: 3
    stride: 2
  }
}
layer {
  name: "norm1"
  type: "LRN"
  bottom: "pool1"
  top: "norm1"
  lrn_param {
    local_size: 5
    alpha: 0.0001
    beta: 0.75
  }
}
layer {
  name: "conv2"
  type: "Convolution"
  bottom: "norm1"
  top: "conv2"
  param {
    lr_mult: 1
    decay_mult: 1
  }
  param {
    lr_mult: 2
    decay_mult: 0
  }
  convolution_param {
    num_output: 256
    pad: 2
    kernel_size: 5
    group: 2
    weight_filler {
      type: "gaussian"
      std: 0.01
    }
    bias_filler {
      type: "constant"
      value: 1
    }
  }
}
layer {
  name: "relu2"
  type: "ReLU"
  bottom: "conv2"
  top: "conv2"
}
layer {
  name: "pool2"
  type: "Pooling"
  bottom: "conv2"
  top: "pool2"
  pooling_param {
    pool: MAX
    kernel_size: 3
    stride: 2
  }
}
layer {
  name: "norm2"
  type: "LRN"
  bottom: "pool2"
  top: "norm2"
  lrn_param {
    local_size: 5
    alpha: 0.0001
    beta: 0.75
  }
}
layer {
  name: "conv3"
  type: "Convolution"
  bottom: "norm2"
  top: "conv3"
  param {
    lr_mult: 1
    decay_mult: 1
  }
  param {
    lr_mult: 2
    decay_mult: 0
  }
  convolution_param {
    num_output: 384
    pad: 1
    kernel_size: 3
    weight_filler {
      type: "gaussian"
      std: 0.01
    }
    bias_filler {
      type: "constant"
      value: 0
    }
  }
}
layer {
  name: "relu3"
  type: "ReLU"
  bottom: "conv3"
  top: "conv3"
}
layer {
  name: "conv4"
  type: "Convolution"
  bottom: "conv3"
  top: "conv4"
  param {
    lr_mult: 1
    decay_mult: 1
  }
  param {
    lr_mult: 2
    decay_mult: 0
  }
  convolution_param {
    num_output: 384
    pad: 1
    kernel_size: 3
    group: 2
    weight_filler {
      type: "gaussian"
      std: 0.01
    }
    bias_filler {
      type: "constant"
      value: 1
    }
  }
}
layer {
  name: "relu4"
  type: "ReLU"
  bottom: "conv4"
  top: "conv4"
}
layer {
  name: "conv5"
  type: "Convolution"
  bottom: "conv4"
  top: "conv5"
  param {
    lr_mult: 1
    decay_mult: 1
  }
  param {
    lr_mult: 2
    decay_mult: 0
  }
  convolution_param {
    num_output: 256
    pad: 1
    kernel_size: 3
    group: 2
    weight_filler {
      type: "gaussian"
      std: 0.01
    }
    bias_filler {
      type: "constant"
      value: 1
    }
  }
}
layer {
  name: "relu5"
  type: "ReLU"
  bottom: "conv5"
  top: "conv5"
}
layer {
  name: "pool5"
  type: "Pooling"
  bottom: "conv5"
  top: "pool5"
  pooling_param {
    pool: MAX
    kernel_size: 3
    stride: 2
  }
}
layer {
  name: "fc6"
  type: "InnerProduct"
  bottom: "pool5"
  top: "fc6"
  param {
    lr_mult: 1
    decay_mult: 1
  }
  param {
    lr_mult: 2
    decay_mult: 0
  }
  inner_product_param {
    num_output: 4096
    weight_filler {
      type: "gaussian"
      std: 0.005
    }
    bias_filler {
      type: "constant"
      value: 1
    }
  }
}
layer {
  name: "relu6"
  type: "ReLU"
  bottom: "fc6"
  top: "fc6"
}
layer {
  name: "drop6"
  type: "Dropout"
  bottom: "fc6"
  top: "fc6"
  dropout_param {
    dropout_ratio: 0.5
  }
}
layer {
  name: "fc7"
  type: "InnerProduct"
  bottom: "fc6"
  top: "fc7"
  param {
    lr_mult: 1
    decay_mult: 1
  }
  param {
    lr_mult: 2
    decay_mult: 0
  }
  inner_product_param {
    num_output: 4096
    weight_filler {
      type: "gaussian"
      std: 0.005
    }
    bias_filler {
      type: "constant"
      value: 1
    }
  }
}
layer {
  name: "relu7"
  type: "ReLU"
  bottom: "fc7"
  top: "fc7"
}
layer {
  name: "drop7"
  type: "Dropout"
  bottom: "fc7"
  top: "fc7"
  dropout_param {
    dropout_ratio: 0.5
  }
}
layer {
  name: "fc8"
  type: "InnerProduct"
  bottom: "fc7"
  top: "fc8"
  param {
    lr_mult: 1
    decay_mult: 1
  }
  param {
    lr_mult: 2
    decay_mult: 0
  }
  inner_product_param {
    num_output: 2
    weight_filler {
      type: "gaussian"
      std: 0.01
    }
    bias_filler {
      type: "constant"
      value: 0
    }
  }
}
layer {
  name: "loss"
  type: "SoftmaxWithLoss"
  bottom: "fc8"
  bottom: "label"
  top: "loss"
}
I0704 09:57:59.160655 26954 layer_factory.hpp:77] Creating layer data
I0704 09:57:59.160806 26954 db_lmdb.cpp:35] Opened lmdb train_lmdb
I0704 09:57:59.160843 26954 net.cpp:86] Creating Layer data
I0704 09:57:59.160856 26954 net.cpp:382] data -> data
I0704 09:57:59.160882 26954 net.cpp:382] data -> label
I0704 09:57:59.160902 26954 data_transformer.cpp:25] Loading mean file from: mean.binaryproto
I0704 09:57:59.165235 26954 data_layer.cpp:45] output data size: 256,3,227,227
I0704 09:57:59.654876 26954 net.cpp:124] Setting up data
I0704 09:57:59.654913 26954 net.cpp:131] Top shape: 256 3 227 227 (39574272)
I0704 09:57:59.654920 26954 net.cpp:131] Top shape: 256 (256)
I0704 09:57:59.654925 26954 net.cpp:139] Memory required for data: 158298112
I0704 09:57:59.654937 26954 layer_factory.hpp:77] Creating layer conv1
I0704 09:57:59.654966 26954 net.cpp:86] Creating Layer conv1
I0704 09:57:59.654973 26954 net.cpp:408] conv1 <- data
I0704 09:57:59.654992 26954 net.cpp:382] conv1 -> conv1
I0704 09:57:59.957505 26954 net.cpp:124] Setting up conv1
I0704 09:57:59.957546 26954 net.cpp:131] Top shape: 256 96 55 55 (74342400)
I0704 09:57:59.957552 26954 net.cpp:139] Memory required for data: 455667712
I0704 09:57:59.957584 26954 layer_factory.hpp:77] Creating layer relu1
I0704 09:57:59.957600 26954 net.cpp:86] Creating Layer relu1
I0704 09:57:59.957605 26954 net.cpp:408] relu1 <- conv1
I0704 09:57:59.957613 26954 net.cpp:369] relu1 -> conv1 (in-place)
I0704 09:57:59.958078 26954 net.cpp:124] Setting up relu1
I0704 09:57:59.958093 26954 net.cpp:131] Top shape: 256 96 55 55 (74342400)
I0704 09:57:59.958097 26954 net.cpp:139] Memory required for data: 753037312
I0704 09:57:59.958101 26954 layer_factory.hpp:77] Creating layer pool1
I0704 09:57:59.958112 26954 net.cpp:86] Creating Layer pool1
I0704 09:57:59.958115 26954 net.cpp:408] pool1 <- conv1
I0704 09:57:59.958122 26954 net.cpp:382] pool1 -> pool1
I0704 09:57:59.958196 26954 net.cpp:124] Setting up pool1
I0704 09:57:59.958206 26954 net.cpp:131] Top shape: 256 96 27 27 (17915904)
I0704 09:57:59.958210 26954 net.cpp:139] Memory required for data: 824700928
I0704 09:57:59.958214 26954 layer_factory.hpp:77] Creating layer norm1
I0704 09:57:59.958228 26954 net.cpp:86] Creating Layer norm1
I0704 09:57:59.958235 26954 net.cpp:408] norm1 <- pool1
I0704 09:57:59.958245 26954 net.cpp:382] norm1 -> norm1
I0704 09:57:59.958539 26954 net.cpp:124] Setting up norm1
I0704 09:57:59.958570 26954 net.cpp:131] Top shape: 256 96 27 27 (17915904)
I0704 09:57:59.958575 26954 net.cpp:139] Memory required for data: 896364544
I0704 09:57:59.958580 26954 layer_factory.hpp:77] Creating layer conv2
I0704 09:57:59.958596 26954 net.cpp:86] Creating Layer conv2
I0704 09:57:59.958600 26954 net.cpp:408] conv2 <- norm1
I0704 09:57:59.958611 26954 net.cpp:382] conv2 -> conv2
I0704 09:57:59.967423 26954 net.cpp:124] Setting up conv2
I0704 09:57:59.967452 26954 net.cpp:131] Top shape: 256 256 27 27 (47775744)
I0704 09:57:59.967455 26954 net.cpp:139] Memory required for data: 1087467520
I0704 09:57:59.967471 26954 layer_factory.hpp:77] Creating layer relu2
I0704 09:57:59.967486 26954 net.cpp:86] Creating Layer relu2
I0704 09:57:59.967491 26954 net.cpp:408] relu2 <- conv2
I0704 09:57:59.967499 26954 net.cpp:369] relu2 -> conv2 (in-place)
I0704 09:57:59.967768 26954 net.cpp:124] Setting up relu2
I0704 09:57:59.967778 26954 net.cpp:131] Top shape: 256 256 27 27 (47775744)
I0704 09:57:59.967782 26954 net.cpp:139] Memory required for data: 1278570496
I0704 09:57:59.967787 26954 layer_factory.hpp:77] Creating layer pool2
I0704 09:57:59.967795 26954 net.cpp:86] Creating Layer pool2
I0704 09:57:59.967799 26954 net.cpp:408] pool2 <- conv2
I0704 09:57:59.967808 26954 net.cpp:382] pool2 -> pool2
I0704 09:57:59.967867 26954 net.cpp:124] Setting up pool2
I0704 09:57:59.967876 26954 net.cpp:131] Top shape: 256 256 13 13 (11075584)
I0704 09:57:59.967880 26954 net.cpp:139] Memory required for data: 1322872832
I0704 09:57:59.967883 26954 layer_factory.hpp:77] Creating layer norm2
I0704 09:57:59.967895 26954 net.cpp:86] Creating Layer norm2
I0704 09:57:59.967902 26954 net.cpp:408] norm2 <- pool2
I0704 09:57:59.967911 26954 net.cpp:382] norm2 -> norm2
I0704 09:57:59.968384 26954 net.cpp:124] Setting up norm2
I0704 09:57:59.968397 26954 net.cpp:131] Top shape: 256 256 13 13 (11075584)
I0704 09:57:59.968402 26954 net.cpp:139] Memory required for data: 1367175168
I0704 09:57:59.968406 26954 layer_factory.hpp:77] Creating layer conv3
I0704 09:57:59.968422 26954 net.cpp:86] Creating Layer conv3
I0704 09:57:59.968426 26954 net.cpp:408] conv3 <- norm2
I0704 09:57:59.968438 26954 net.cpp:382] conv3 -> conv3
I0704 09:57:59.985760 26954 net.cpp:124] Setting up conv3
I0704 09:57:59.985796 26954 net.cpp:131] Top shape: 256 384 13 13 (16613376)
I0704 09:57:59.985801 26954 net.cpp:139] Memory required for data: 1433628672
I0704 09:57:59.985818 26954 layer_factory.hpp:77] Creating layer relu3
I0704 09:57:59.985834 26954 net.cpp:86] Creating Layer relu3
I0704 09:57:59.985841 26954 net.cpp:408] relu3 <- conv3
I0704 09:57:59.985848 26954 net.cpp:369] relu3 -> conv3 (in-place)
I0704 09:57:59.986104 26954 net.cpp:124] Setting up relu3
I0704 09:57:59.986117 26954 net.cpp:131] Top shape: 256 384 13 13 (16613376)
I0704 09:57:59.986122 26954 net.cpp:139] Memory required for data: 1500082176
I0704 09:57:59.986126 26954 layer_factory.hpp:77] Creating layer conv4
I0704 09:57:59.986143 26954 net.cpp:86] Creating Layer conv4
I0704 09:57:59.986150 26954 net.cpp:408] conv4 <- conv3
I0704 09:57:59.986157 26954 net.cpp:382] conv4 -> conv4
I0704 09:58:00.025122 26954 net.cpp:124] Setting up conv4
I0704 09:58:00.025152 26954 net.cpp:131] Top shape: 256 384 13 13 (16613376)
I0704 09:58:00.025156 26954 net.cpp:139] Memory required for data: 1566535680
I0704 09:58:00.025167 26954 layer_factory.hpp:77] Creating layer relu4
I0704 09:58:00.025177 26954 net.cpp:86] Creating Layer relu4
I0704 09:58:00.025182 26954 net.cpp:408] relu4 <- conv4
I0704 09:58:00.025192 26954 net.cpp:369] relu4 -> conv4 (in-place)
I0704 09:58:00.025451 26954 net.cpp:124] Setting up relu4
I0704 09:58:00.025462 26954 net.cpp:131] Top shape: 256 384 13 13 (16613376)
I0704 09:58:00.025466 26954 net.cpp:139] Memory required for data: 1632989184
I0704 09:58:00.025470 26954 layer_factory.hpp:77] Creating layer conv5
I0704 09:58:00.025490 26954 net.cpp:86] Creating Layer conv5
I0704 09:58:00.025496 26954 net.cpp:408] conv5 <- conv4
I0704 09:58:00.025504 26954 net.cpp:382] conv5 -> conv5
I0704 09:58:00.036666 26954 net.cpp:124] Setting up conv5
I0704 09:58:00.036698 26954 net.cpp:131] Top shape: 256 256 13 13 (11075584)
I0704 09:58:00.036703 26954 net.cpp:139] Memory required for data: 1677291520
I0704 09:58:00.036723 26954 layer_factory.hpp:77] Creating layer relu5
I0704 09:58:00.036734 26954 net.cpp:86] Creating Layer relu5
I0704 09:58:00.036741 26954 net.cpp:408] relu5 <- conv5
I0704 09:58:00.036747 26954 net.cpp:369] relu5 -> conv5 (in-place)
I0704 09:58:00.037197 26954 net.cpp:124] Setting up relu5
I0704 09:58:00.037211 26954 net.cpp:131] Top shape: 256 256 13 13 (11075584)
I0704 09:58:00.037215 26954 net.cpp:139] Memory required for data: 1721593856
I0704 09:58:00.037220 26954 layer_factory.hpp:77] Creating layer pool5
I0704 09:58:00.037230 26954 net.cpp:86] Creating Layer pool5
I0704 09:58:00.037233 26954 net.cpp:408] pool5 <- conv5
I0704 09:58:00.037243 26954 net.cpp:382] pool5 -> pool5
I0704 09:58:00.037310 26954 net.cpp:124] Setting up pool5
I0704 09:58:00.037319 26954 net.cpp:131] Top shape: 256 256 6 6 (2359296)
I0704 09:58:00.037323 26954 net.cpp:139] Memory required for data: 1731031040
I0704 09:58:00.037328 26954 layer_factory.hpp:77] Creating layer fc6
I0704 09:58:00.037348 26954 net.cpp:86] Creating Layer fc6
I0704 09:58:00.037353 26954 net.cpp:408] fc6 <- pool5
I0704 09:58:00.037360 26954 net.cpp:382] fc6 -> fc6
I0704 09:58:00.751440 26954 net.cpp:124] Setting up fc6
I0704 09:58:00.751478 26954 net.cpp:131] Top shape: 256 4096 (1048576)
I0704 09:58:00.751483 26954 net.cpp:139] Memory required for data: 1735225344
I0704 09:58:00.751505 26954 layer_factory.hpp:77] Creating layer relu6
I0704 09:58:00.751528 26954 net.cpp:86] Creating Layer relu6
I0704 09:58:00.751533 26954 net.cpp:408] relu6 <- fc6
I0704 09:58:00.751549 26954 net.cpp:369] relu6 -> fc6 (in-place)
I0704 09:58:00.752127 26954 net.cpp:124] Setting up relu6
I0704 09:58:00.752140 26954 net.cpp:131] Top shape: 256 4096 (1048576)
I0704 09:58:00.752142 26954 net.cpp:139] Memory required for data: 1739419648
I0704 09:58:00.752147 26954 layer_factory.hpp:77] Creating layer drop6
I0704 09:58:00.752156 26954 net.cpp:86] Creating Layer drop6
I0704 09:58:00.752159 26954 net.cpp:408] drop6 <- fc6
I0704 09:58:00.752168 26954 net.cpp:369] drop6 -> fc6 (in-place)
I0704 09:58:00.752202 26954 net.cpp:124] Setting up drop6
I0704 09:58:00.752210 26954 net.cpp:131] Top shape: 256 4096 (1048576)
I0704 09:58:00.752213 26954 net.cpp:139] Memory required for data: 1743613952
I0704 09:58:00.752218 26954 layer_factory.hpp:77] Creating layer fc7
I0704 09:58:00.752233 26954 net.cpp:86] Creating Layer fc7
I0704 09:58:00.752238 26954 net.cpp:408] fc7 <- fc6
I0704 09:58:00.752244 26954 net.cpp:382] fc7 -> fc7
I0704 09:58:01.066612 26954 net.cpp:124] Setting up fc7
I0704 09:58:01.066648 26954 net.cpp:131] Top shape: 256 4096 (1048576)
I0704 09:58:01.066651 26954 net.cpp:139] Memory required for data: 1747808256
I0704 09:58:01.066663 26954 layer_factory.hpp:77] Creating layer relu7
I0704 09:58:01.066679 26954 net.cpp:86] Creating Layer relu7
I0704 09:58:01.066685 26954 net.cpp:408] relu7 <- fc7
I0704 09:58:01.066694 26954 net.cpp:369] relu7 -> fc7 (in-place)
I0704 09:58:01.067349 26954 net.cpp:124] Setting up relu7
I0704 09:58:01.067364 26954 net.cpp:131] Top shape: 256 4096 (1048576)
I0704 09:58:01.067369 26954 net.cpp:139] Memory required for data: 1752002560
I0704 09:58:01.067374 26954 layer_factory.hpp:77] Creating layer drop7
I0704 09:58:01.067389 26954 net.cpp:86] Creating Layer drop7
I0704 09:58:01.067394 26954 net.cpp:408] drop7 <- fc7
I0704 09:58:01.067401 26954 net.cpp:369] drop7 -> fc7 (in-place)
I0704 09:58:01.067433 26954 net.cpp:124] Setting up drop7
I0704 09:58:01.067441 26954 net.cpp:131] Top shape: 256 4096 (1048576)
I0704 09:58:01.067445 26954 net.cpp:139] Memory required for data: 1756196864
I0704 09:58:01.067450 26954 layer_factory.hpp:77] Creating layer fc8
I0704 09:58:01.067459 26954 net.cpp:86] Creating Layer fc8
I0704 09:58:01.067464 26954 net.cpp:408] fc8 <- fc7
I0704 09:58:01.067473 26954 net.cpp:382] fc8 -> fc8
I0704 09:58:01.068629 26954 net.cpp:124] Setting up fc8
I0704 09:58:01.068665 26954 net.cpp:131] Top shape: 256 2 (512)
I0704 09:58:01.068670 26954 net.cpp:139] Memory required for data: 1756198912
I0704 09:58:01.068677 26954 layer_factory.hpp:77] Creating layer loss
I0704 09:58:01.068686 26954 net.cpp:86] Creating Layer loss
I0704 09:58:01.068691 26954 net.cpp:408] loss <- fc8
I0704 09:58:01.068696 26954 net.cpp:408] loss <- label
I0704 09:58:01.068706 26954 net.cpp:382] loss -> loss
I0704 09:58:01.068722 26954 layer_factory.hpp:77] Creating layer loss
…
I0704 09:58:01.069824 26954 solver.cpp:173] Creating test net (#0) specified by net file: pruebanet_train_val_1.prototxt
I0704 09:58:01.069874 26954 net.cpp:296] The NetState phase (1) differed from the phase (0) specified by a rule in layer data
I0704 09:58:01.070122 26954 net.cpp:53] Initializing net from parameters: 
name: "Pruebanet"
state {
  phase: TEST
}
layer {
  name: "data"
  type: "Data"
  top: "data"
  top: "label"
  include {
    phase: TEST
  }
  transform_param {
    mirror: false
    crop_size: 227
    mean_file: "mean.binaryproto"
  }
  data_param {
    source: "validation_lmdb"
    batch_size: 50
    backend: LMDB
  }
}
layer {
  name: "conv1"
  type: "Convolution"
  bottom: "data"
  top: "conv1"
  param {
    lr_mult: 1
    decay_mult: 1
  }
  param {
    lr_mult: 2
    decay_mult: 0
  }
  convolution_param {
    num_output: 96
    kernel_size: 11
    stride: 4
    weight_filler {
      type: "gaussian"
      std: 0.01
    }
    bias_filler {
      type: "constant"
      value: 0
    }
  }
}
layer {
  name: "relu1"
  type: "ReLU"
  bottom: "conv1"
  top: "conv1"
}
layer {
  name: "pool1"
  type: "Pooling"
  bottom: "conv1"
  top: "pool1"
  pooling_param {
    pool: MAX
    kernel_size: 3
    stride: 2
  }
}
layer {
  name: "norm1"
  type: "LRN"
  bottom: "pool1"
  top: "norm1"
  lrn_param {
    local_size: 5
    alpha: 0.0001
    beta: 0.75
  }
}
layer {
  name: "conv2"
  type: "Convolution"
  bottom: "norm1"
  top: "conv2"
  param {
    lr_mult: 1
    decay_mult: 1
  }
  param {
    lr_mult: 2
    decay_mult: 0
  }
  convolution_param {
    num_output: 256
    pad: 2
    kernel_size: 5
    group: 2
    weight_filler {
      type: "gaussian"
      std: 0.01
    }
    bias_filler {
      type: "constant"
      value: 1
    }
  }
}
layer {
  name: "relu2"
  type: "ReLU"
  bottom: "conv2"
  top: "conv2"
}
layer {
  name: "pool2"
  type: "Pooling"
  bottom: "conv2"
  top: "pool2"
  pooling_param {
    pool: MAX
    kernel_size: 3
    stride: 2
  }
}
layer {
  name: "norm2"
  type: "LRN"
  bottom: "pool2"
  top: "norm2"
  lrn_param {
    local_size: 5
    alpha: 0.0001
    beta: 0.75
  }
}
layer {
  name: "conv3"
  type: "Convolution"
  bottom: "norm2"
  top: "conv3"
  param {
    lr_mult: 1
    decay_mult: 1
  }
  param {
    lr_mult: 2
    decay_mult: 0
  }
  convolution_param {
    num_output: 384
    pad: 1
    kernel_size: 3
    weight_filler {
      type: "gaussian"
      std: 0.01
    }
    bias_filler {
      type: "constant"
      value: 0
    }
  }
}
layer {
  name: "relu3"
  type: "ReLU"
  bottom: "conv3"
  top: "conv3"
}
layer {
  name: "conv4"
  type: "Convolution"
  bottom: "conv3"
  top: "conv4"
  param {
    lr_mult: 1
    decay_mult: 1
  }
  param {
    lr_mult: 2
    decay_mult: 0
  }
  convolution_param {
    num_output: 384
    pad: 1
    kernel_size: 3
    group: 2
    weight_filler {
      type: "gaussian"
      std: 0.01
    }
    bias_filler {
      type: "constant"
      value: 1
    }
  }
}
layer {
  name: "relu4"
  type: "ReLU"
  bottom: "conv4"
  top: "conv4"
}
layer {
  name: "conv5"
  type: "Convolution"
  bottom: "conv4"
  top: "conv5"
  param {
    lr_mult: 1
    decay_mult: 1
  }
  param {
    lr_mult: 2
    decay_mult: 0
  }
  convolution_param {
    num_output: 256
    pad: 1
    kernel_size: 3
    group: 2
    weight_filler {
      type: "gaussian"
      std: 0.01
    }
    bias_filler {
      type: "constant"
      value: 1
    }
  }
}
layer {
  name: "relu5"
  type: "ReLU"
  bottom: "conv5"
  top: "conv5"
}
layer {
  name: "pool5"
  type: "Pooling"
  bottom: "conv5"
  top: "pool5"
  pooling_param {
    pool: MAX
    kernel_size: 3
    stride: 2
  }
}
layer {
  name: "fc6"
  type: "InnerProduct"
  bottom: "pool5"
  top: "fc6"
  param {
    lr_mult: 1
    decay_mult: 1
  }
  param {
    lr_mult: 2
    decay_mult: 0
  }
  inner_product_param {
    num_output: 4096
    weight_filler {
      type: "gaussian"
      std: 0.005
    }
    bias_filler {
      type: "constant"
      value: 1
    }
  }
}
layer {
  name: "relu6"
  type: "ReLU"
  bottom: "fc6"
  top: "fc6"
}
layer {
  name: "drop6"
  type: "Dropout"
  bottom: "fc6"
  top: "fc6"
  dropout_param {
    dropout_ratio: 0.5
  }
}
layer {
  name: "fc7"
  type: "InnerProduct"
  bottom: "fc6"
  top: "fc7"
  param {
    lr_mult: 1
    decay_mult: 1
  }
  param {
    lr_mult: 2
    decay_mult: 0
  }
  inner_product_param {
    num_output: 4096
    weight_filler {
      type: "gaussian"
      std: 0.005
    }
    bias_filler {
      type: "constant"
      value: 1
    }
  }
}
layer {
  name: "relu7"
  type: "ReLU"
  bottom: "fc7"
  top: "fc7"
}
layer {
  name: "drop7"
  type: "Dropout"
  bottom: "fc7"
  top: "fc7"
  dropout_param {
    dropout_ratio: 0.5
  }
}
layer {
  name: "fc8"
  type: "InnerProduct"
  bottom: "fc7"
  top: "fc8"
  param {
    lr_mult: 1
    decay_mult: 1
  }
  param {
    lr_mult: 2
    decay_mult: 0
  }
  inner_product_param {
    num_output: 2
    weight_filler {
      type: "gaussian"
      std: 0.01
    }
    bias_filler {
      type: "constant"
      value: 0
    }
  }
}
layer {
  name: "accuracy"
  type: "Accuracy"
  bottom: "fc8"
  bottom: "label"
  top: "accuracy"
  include {
    phase: TEST
  }
}
layer {
  name: "loss"
  type: "SoftmaxWithLoss"
  bottom: "fc8"
  bottom: "label"
  top: "loss"
}
I0704 09:58:01.070282 26954 layer_factory.hpp:77] Creating layer data
I0704 09:58:01.070371 26954 db_lmdb.cpp:35] Opened lmdb validation_lmdb
I0704 09:58:01.070405 26954 net.cpp:86] Creating Layer data
I0704 09:58:01.070415 26954 net.cpp:382] data -> data
I0704 09:58:01.070426 26954 net.cpp:382] data -> label
I0704 09:58:01.070436 26954 data_transformer.cpp:25] Loading mean file from: mean.binaryproto
I0704 09:58:01.073842 26954 data_layer.cpp:45] output data size: 50,3,227,227
I0704 09:58:01.197139 26954 net.cpp:124] Setting up data
I0704 09:58:01.197181 26954 net.cpp:131] Top shape: 50 3 227 227 (7729350)
I0704 09:58:01.197187 26954 net.cpp:131] Top shape: 50 (50)
I0704 09:58:01.197192 26954 net.cpp:139] Memory required for data: 30917600
I0704 09:58:01.197201 26954 layer_factory.hpp:77] Creating layer label_data_1_split
I0704 09:58:01.197221 26954 net.cpp:86] Creating Layer label_data_1_split
I0704 09:58:01.197227 26954 net.cpp:408] label_data_1_split <- label
I0704 09:58:01.197238 26954 net.cpp:382] label_data_1_split -> label_data_1_split_0
I0704 09:58:01.197252 26954 net.cpp:382] label_data_1_split -> label_data_1_split_1
I0704 09:58:01.197484 26954 net.cpp:124] Setting up label_data_1_split
I0704 09:58:01.197511 26954 net.cpp:131] Top shape: 50 (50)
I0704 09:58:01.197520 26954 net.cpp:131] Top shape: 50 (50)
I0704 09:58:01.197525 26954 net.cpp:139] Memory required for data: 30918000
I0704 09:58:01.197532 26954 layer_factory.hpp:77] Creating layer conv1
I0704 09:58:01.197558 26954 net.cpp:86] Creating Layer conv1
I0704 09:58:01.197569 26954 net.cpp:408] conv1 <- data
I0704 09:58:01.197584 26954 net.cpp:382] conv1 -> conv1
I0704 09:58:01.203872 26954 net.cpp:124] Setting up conv1
I0704 09:58:01.203903 26954 net.cpp:131] Top shape: 50 96 55 55 (14520000)
I0704 09:58:01.203912 26954 net.cpp:139] Memory required for data: 88998000
I0704 09:58:01.203933 26954 layer_factory.hpp:77] Creating layer relu1
I0704 09:58:01.203951 26954 net.cpp:86] Creating Layer relu1
I0704 09:58:01.203959 26954 net.cpp:408] relu1 <- conv1
I0704 09:58:01.203971 26954 net.cpp:369] relu1 -> conv1 (in-place)
I0704 09:58:01.204594 26954 net.cpp:124] Setting up relu1
I0704 09:58:01.204615 26954 net.cpp:131] Top shape: 50 96 55 55 (14520000)
I0704 09:58:01.204620 26954 net.cpp:139] Memory required for data: 147078000
I0704 09:58:01.204628 26954 layer_factory.hpp:77] Creating layer pool1
I0704 09:58:01.204645 26954 net.cpp:86] Creating Layer pool1
I0704 09:58:01.204651 26954 net.cpp:408] pool1 <- conv1
I0704 09:58:01.204663 26954 net.cpp:382] pool1 -> pool1
I0704 09:58:01.204756 26954 net.cpp:124] Setting up pool1
I0704 09:58:01.204768 26954 net.cpp:131] Top shape: 50 96 27 27 (3499200)
I0704 09:58:01.204776 26954 net.cpp:139] Memory required for data: 161074800
I0704 09:58:01.204780 26954 layer_factory.hpp:77] Creating layer norm1
I0704 09:58:01.204795 26954 net.cpp:86] Creating Layer norm1
I0704 09:58:01.204803 26954 net.cpp:408] norm1 <- pool1
I0704 09:58:01.204813 26954 net.cpp:382] norm1 -> norm1
I0704 09:58:01.205219 26954 net.cpp:124] Setting up norm1
I0704 09:58:01.205235 26954 net.cpp:131] Top shape: 50 96 27 27 (3499200)
I0704 09:58:01.205240 26954 net.cpp:139] Memory required for data: 175071600
I0704 09:58:01.205246 26954 layer_factory.hpp:77] Creating layer conv2
I0704 09:58:01.205265 26954 net.cpp:86] Creating Layer conv2
I0704 09:58:01.205273 26954 net.cpp:408] conv2 <- norm1
I0704 09:58:01.205286 26954 net.cpp:382] conv2 -> conv2
I0704 09:58:01.216339 26954 net.cpp:124] Setting up conv2
I0704 09:58:01.216372 26954 net.cpp:131] Top shape: 50 256 27 27 (9331200)
I0704 09:58:01.216380 26954 net.cpp:139] Memory required for data: 212396400
I0704 09:58:01.216399 26954 layer_factory.hpp:77] Creating layer relu2
I0704 09:58:01.216413 26954 net.cpp:86] Creating Layer relu2
I0704 09:58:01.216420 26954 net.cpp:408] relu2 <- conv2
I0704 09:58:01.216435 26954 net.cpp:369] relu2 -> conv2 (in-place)
I0704 09:58:01.216769 26954 net.cpp:124] Setting up relu2
I0704 09:58:01.216784 26954 net.cpp:131] Top shape: 50 256 27 27 (9331200)
I0704 09:58:01.216789 26954 net.cpp:139] Memory required for data: 249721200
I0704 09:58:01.216794 26954 layer_factory.hpp:77] Creating layer pool2
I0704 09:58:01.216810 26954 net.cpp:86] Creating Layer pool2
I0704 09:58:01.216851 26954 net.cpp:408] pool2 <- conv2
I0704 09:58:01.216862 26954 net.cpp:382] pool2 -> pool2
I0704 09:58:01.216953 26954 net.cpp:124] Setting up pool2
I0704 09:58:01.216966 26954 net.cpp:131] Top shape: 50 256 13 13 (2163200)
I0704 09:58:01.216972 26954 net.cpp:139] Memory required for data: 258374000
I0704 09:58:01.216977 26954 layer_factory.hpp:77] Creating layer norm2
I0704 09:58:01.216990 26954 net.cpp:86] Creating Layer norm2
I0704 09:58:01.216998 26954 net.cpp:408] norm2 <- pool2
I0704 09:58:01.217007 26954 net.cpp:382] norm2 -> norm2
I0704 09:58:01.217643 26954 net.cpp:124] Setting up norm2
I0704 09:58:01.217664 26954 net.cpp:131] Top shape: 50 256 13 13 (2163200)
I0704 09:58:01.217680 26954 net.cpp:139] Memory required for data: 267026800
I0704 09:58:01.217685 26954 layer_factory.hpp:77] Creating layer conv3
I0704 09:58:01.217705 26954 net.cpp:86] Creating Layer conv3
I0704 09:58:01.217715 26954 net.cpp:408] conv3 <- norm2
I0704 09:58:01.217726 26954 net.cpp:382] conv3 -> conv3
I0704 09:58:01.243649 26954 net.cpp:124] Setting up conv3
I0704 09:58:01.243695 26954 net.cpp:131] Top shape: 50 384 13 13 (3244800)
I0704 09:58:01.243703 26954 net.cpp:139] Memory required for data: 280006000
I0704 09:58:01.243726 26954 layer_factory.hpp:77] Creating layer relu3
I0704 09:58:01.243743 26954 net.cpp:86] Creating Layer relu3
I0704 09:58:01.243752 26954 net.cpp:408] relu3 <- conv3
I0704 09:58:01.243764 26954 net.cpp:369] relu3 -> conv3 (in-place)
I0704 09:58:01.244068 26954 net.cpp:124] Setting up relu3
I0704 09:58:01.244081 26954 net.cpp:131] Top shape: 50 384 13 13 (3244800)
I0704 09:58:01.244087 26954 net.cpp:139] Memory required for data: 292985200
I0704 09:58:01.244093 26954 layer_factory.hpp:77] Creating layer conv4
I0704 09:58:01.244110 26954 net.cpp:86] Creating Layer conv4
I0704 09:58:01.244117 26954 net.cpp:408] conv4 <- conv3
I0704 09:58:01.244127 26954 net.cpp:382] conv4 -> conv4
I0704 09:58:01.260269 26954 net.cpp:124] Setting up conv4
I0704 09:58:01.260308 26954 net.cpp:131] Top shape: 50 384 13 13 (3244800)
I0704 09:58:01.260313 26954 net.cpp:139] Memory required for data: 305964400
I0704 09:58:01.260327 26954 layer_factory.hpp:77] Creating layer relu4
I0704 09:58:01.260344 26954 net.cpp:86] Creating Layer relu4
I0704 09:58:01.260350 26954 net.cpp:408] relu4 <- conv4
I0704 09:58:01.260361 26954 net.cpp:369] relu4 -> conv4 (in-place)
I0704 09:58:01.260635 26954 net.cpp:124] Setting up relu4
I0704 09:58:01.260648 26954 net.cpp:131] Top shape: 50 384 13 13 (3244800)
I0704 09:58:01.260653 26954 net.cpp:139] Memory required for data: 318943600
I0704 09:58:01.260656 26954 layer_factory.hpp:77] Creating layer conv5
I0704 09:58:01.260673 26954 net.cpp:86] Creating Layer conv5
I0704 09:58:01.260679 26954 net.cpp:408] conv5 <- conv4
I0704 09:58:01.260689 26954 net.cpp:382] conv5 -> conv5
I0704 09:58:01.277271 26954 net.cpp:124] Setting up conv5
I0704 09:58:01.277304 26954 net.cpp:131] Top shape: 50 256 13 13 (2163200)
I0704 09:58:01.277310 26954 net.cpp:139] Memory required for data: 327596400
I0704 09:58:01.277330 26954 layer_factory.hpp:77] Creating layer relu5
I0704 09:58:01.277345 26954 net.cpp:86] Creating Layer relu5
I0704 09:58:01.277354 26954 net.cpp:408] relu5 <- conv5
I0704 09:58:01.277364 26954 net.cpp:369] relu5 -> conv5 (in-place)
I0704 09:58:01.277657 26954 net.cpp:124] Setting up relu5
I0704 09:58:01.277681 26954 net.cpp:131] Top shape: 50 256 13 13 (2163200)
I0704 09:58:01.277686 26954 net.cpp:139] Memory required for data: 336249200
I0704 09:58:01.277693 26954 layer_factory.hpp:77] Creating layer pool5
I0704 09:58:01.277707 26954 net.cpp:86] Creating Layer pool5
I0704 09:58:01.277714 26954 net.cpp:408] pool5 <- conv5
I0704 09:58:01.277721 26954 net.cpp:382] pool5 -> pool5
I0704 09:58:01.277801 26954 net.cpp:124] Setting up pool5
I0704 09:58:01.277809 26954 net.cpp:131] Top shape: 50 256 6 6 (460800)
I0704 09:58:01.277813 26954 net.cpp:139] Memory required for data: 338092400
I0704 09:58:01.277817 26954 layer_factory.hpp:77] Creating layer fc6
I0704 09:58:01.277856 26954 net.cpp:86] Creating Layer fc6
I0704 09:58:01.277863 26954 net.cpp:408] fc6 <- pool5
I0704 09:58:01.277873 26954 net.cpp:382] fc6 -> fc6
I0704 09:58:01.955293 26954 net.cpp:124] Setting up fc6
I0704 09:58:01.955337 26954 net.cpp:131] Top shape: 50 4096 (204800)
I0704 09:58:01.955341 26954 net.cpp:139] Memory required for data: 338911600
I0704 09:58:01.955355 26954 layer_factory.hpp:77] Creating layer relu6
I0704 09:58:01.955369 26954 net.cpp:86] Creating Layer relu6
I0704 09:58:01.955377 26954 net.cpp:408] relu6 <- fc6
I0704 09:58:01.955389 26954 net.cpp:369] relu6 -> fc6 (in-place)
I0704 09:58:01.956094 26954 net.cpp:124] Setting up relu6
I0704 09:58:01.956110 26954 net.cpp:131] Top shape: 50 4096 (204800)
I0704 09:58:01.956115 26954 net.cpp:139] Memory required for data: 339730800
I0704 09:58:01.956120 26954 layer_factory.hpp:77] Creating layer drop6
I0704 09:58:01.956131 26954 net.cpp:86] Creating Layer drop6
I0704 09:58:01.956135 26954 net.cpp:408] drop6 <- fc6
I0704 09:58:01.956146 26954 net.cpp:369] drop6 -> fc6 (in-place)
I0704 09:58:01.956193 26954 net.cpp:124] Setting up drop6
I0704 09:58:01.956202 26954 net.cpp:131] Top shape: 50 4096 (204800)
I0704 09:58:01.956207 26954 net.cpp:139] Memory required for data: 340550000
I0704 09:58:01.956212 26954 layer_factory.hpp:77] Creating layer fc7
I0704 09:58:01.956223 26954 net.cpp:86] Creating Layer fc7
I0704 09:58:01.956229 26954 net.cpp:408] fc7 <- fc6
I0704 09:58:01.956238 26954 net.cpp:382] fc7 -> fc7
I0704 09:58:02.257858 26954 net.cpp:124] Setting up fc7
I0704 09:58:02.257899 26954 net.cpp:131] Top shape: 50 4096 (204800)
I0704 09:58:02.257903 26954 net.cpp:139] Memory required for data: 341369200
I0704 09:58:02.257916 26954 layer_factory.hpp:77] Creating layer relu7
I0704 09:58:02.257932 26954 net.cpp:86] Creating Layer relu7
I0704 09:58:02.257939 26954 net.cpp:408] relu7 <- fc7
I0704 09:58:02.257949 26954 net.cpp:369] relu7 -> fc7 (in-place)
I0704 09:58:02.258313 26954 net.cpp:124] Setting up relu7
I0704 09:58:02.258327 26954 net.cpp:131] Top shape: 50 4096 (204800)
I0704 09:58:02.258330 26954 net.cpp:139] Memory required for data: 342188400
I0704 09:58:02.258334 26954 layer_factory.hpp:77] Creating layer drop7
I0704 09:58:02.258344 26954 net.cpp:86] Creating Layer drop7
I0704 09:58:02.258349 26954 net.cpp:408] drop7 <- fc7
I0704 09:58:02.258358 26954 net.cpp:369] drop7 -> fc7 (in-place)
I0704 09:58:02.258405 26954 net.cpp:124] Setting up drop7
I0704 09:58:02.258414 26954 net.cpp:131] Top shape: 50 4096 (204800)
I0704 09:58:02.258419 26954 net.cpp:139] Memory required for data: 343007600
I0704 09:58:02.258421 26954 layer_factory.hpp:77] Creating layer fc8
I0704 09:58:02.258435 26954 net.cpp:86] Creating Layer fc8
I0704 09:58:02.258440 26954 net.cpp:408] fc8 <- fc7
I0704 09:58:02.258450 26954 net.cpp:382] fc8 -> fc8
I0704 09:58:02.258757 26954 net.cpp:124] Setting up fc8
I0704 09:58:02.258767 26954 net.cpp:131] Top shape: 50 2 (100)
I0704 09:58:02.258770 26954 net.cpp:139] Memory required for data: 343008000
I0704 09:58:02.258780 26954 layer_factory.hpp:77] Creating layer fc8_fc8_0_split
I0704 09:58:02.258790 26954 net.cpp:86] Creating Layer fc8_fc8_0_split
I0704 09:58:02.258795 26954 net.cpp:408] fc8_fc8_0_split <- fc8
I0704 09:58:02.258802 26954 net.cpp:382] fc8_fc8_0_split -> fc8_fc8_0_split_0
I0704 09:58:02.258812 26954 net.cpp:382] fc8_fc8_0_split -> fc8_fc8_0_split_1
I0704 09:58:02.258868 26954 net.cpp:124] Setting up fc8_fc8_0_split
I0704 09:58:02.258877 26954 net.cpp:131] Top shape: 50 2 (100)
I0704 09:58:02.258880 26954 net.cpp:131] Top shape: 50 2 (100)
I0704 09:58:02.258884 26954 net.cpp:139] Memory required for data: 343008800
I0704 09:58:02.258888 26954 layer_factory.hpp:77] Creating layer accuracy
I0704 09:58:02.258899 26954 net.cpp:86] Creating Layer accuracy
I0704 09:58:02.258903 26954 net.cpp:408] accuracy <- fc8_fc8_0_split_0
I0704 09:58:02.258910 26954 net.cpp:408] accuracy <- label_data_1_split_0
I0704 09:58:02.258918 26954 net.cpp:382] accuracy -> accuracy
…
